…
2018-06-21 01:14:33,618 : INFO : _________________________________start___________________________________
2018-06-21 01:14:33,626 : INFO : Namespace(batchsize=25, cuda=True, data='data/sst/', emblr=0.1, epochs=10, fine_grain=0, glove='data/glove/', input_dim=300, lower=True, lr=0.05, mem_dim=168, model_name='dependency', name='log.txt', num_classes=3, optim='adagrad', reg=0.0001, saved='saved_model', seed=123, wd=0.0001)
2018-06-21 01:14:33,640 : INFO : ==> SST vocabulary size : 21701
2018-06-21 01:14:37,656 : INFO : TreeLSTMSentiment(
2018-06-21 01:14:37,657 : INFO :   (tree_module): ChildSumTreeLSTM(
2018-06-21 01:14:37,657 : INFO :     (ix): Linear(in_features=300, out_features=168, bias=True)
2018-06-21 01:14:37,657 : INFO :     (ih): Linear(in_features=168, out_features=168, bias=True)
2018-06-21 01:14:37,657 : INFO :     (fh): Linear(in_features=168, out_features=168, bias=True)
2018-06-21 01:14:37,657 : INFO :     (fx): Linear(in_features=300, out_features=168, bias=True)
2018-06-21 01:14:37,657 : INFO :     (ux): Linear(in_features=300, out_features=168, bias=True)
2018-06-21 01:14:37,657 : INFO :     (uh): Linear(in_features=168, out_features=168, bias=True)
2018-06-21 01:14:37,657 : INFO :     (ox): Linear(in_features=300, out_features=168, bias=True)
2018-06-21 01:14:37,657 : INFO :     (oh): Linear(in_features=168, out_features=168, bias=True)
2018-06-21 01:14:37,657 : INFO :     (criterion): NLLLoss()
2018-06-21 01:14:37,657 : INFO :     (output_module): SentimentModule(
2018-06-21 01:14:37,657 : INFO :       (l1): Linear(in_features=168, out_features=3, bias=True)
2018-06-21 01:14:37,657 : INFO :       (logsoftmax): LogSoftmax()
2018-06-21 01:14:37,657 : INFO :     )
2018-06-21 01:14:37,657 : INFO :   )
2018-06-21 01:14:37,657 : INFO :   (output_module): SentimentModule(
2018-06-21 01:14:37,657 : INFO :     (l1): Linear(in_features=168, out_features=3, bias=True)
2018-06-21 01:14:37,657 : INFO :     (logsoftmax): LogSoftmax()
2018-06-21 01:14:37,657 : INFO :   )
2018-06-21 01:14:37,657 : INFO : )
2018-06-21 01:19:23,904 : INFO : LOG_FILE
2018-06-21 01:19:23,904 : INFO : _________________________________start___________________________________
2018-06-21 01:19:23,908 : INFO : Namespace(batchsize=25, cuda=True, data='data/sst/', emblr=0.1, epochs=10, fine_grain=0, glove='data/glove/', input_dim=300, lower=True, lr=0.05, mem_dim=168, model_name='dependency', name='log.txt', num_classes=3, optim='adagrad', reg=0.0001, saved='saved_model', seed=123, wd=0.0001)
…
2018-08-05 22:25:57,974 : INFO : Namespace(batchsize=25, cuda=True, data='data/sst/', emblr=0.1, epochs=100, fine_grain=0, glove='data/glove/', input_dim=300, lower=True, lr=0.05, mem_dim=150, model_name='constituency', name='log.txt', num_classes=3, optim='adagrad', reg=0.0001, saved='saved_model', seed=123, wd=0.0001)
2018-08-05 22:25:57,986 : INFO : ==> SST vocabulary size : 21701
2018-08-05 22:26:01,433 : INFO : TreeLSTMSentiment(
2018-08-05 22:26:01,433 : INFO :   (tree_module): BinaryTreeLSTM(
2018-08-05 22:26:01,433 : INFO :     (criterion): NLLLoss()
2018-08-05 22:26:01,433 : INFO :     (leaf_module): BinaryTreeLeafModule(
2018-08-05 22:26:01,433 : INFO :       (cx): Linear(in_features=300, out_features=150, bias=True)
2018-08-05 22:26:01,433 : INFO :       (ox): Linear(in_features=300, out_features=150, bias=True)
2018-08-05 22:26:01,433 : INFO :     )
2018-08-05 22:26:01,433 : INFO :     (composer): BinaryTreeComposer(
2018-08-05 22:26:01,433 : INFO :       (ilh): Linear(in_features=150, out_features=150, bias=True)
2018-08-05 22:26:01,433 : INFO :       (irh): Linear(in_features=150, out_features=150, bias=True)
2018-08-05 22:26:01,433 : INFO :       (lflh): Linear(in_features=150, out_features=150, bias=True)
2018-08-05 22:26:01,433 : INFO :       (lfrh): Linear(in_features=150, out_features=150, bias=True)
2018-08-05 22:26:01,433 : INFO :       (rflh): Linear(in_features=150, out_features=150, bias=True)
2018-08-05 22:26:01,433 : INFO :       (rfrh): Linear(in_features=150, out_features=150, bias=True)
2018-08-05 22:26:01,433 : INFO :       (ulh): Linear(in_features=150, out_features=150, bias=True)
2018-08-05 22:26:01,433 : INFO :       (urh): Linear(in_features=150, out_features=150, bias=True)
2018-08-05 22:26:01,433 : INFO :     )
2018-08-05 22:26:01,433 : INFO :     (output_module): SentimentModule(
2018-08-05 22:26:01,433 : INFO :       (l1): Linear(in_features=150, out_features=3, bias=True)
2018-08-05 22:26:01,433 : INFO :       (logsoftmax): LogSoftmax()
2018-08-05 22:26:01,434 : INFO :     )
2018-08-05 22:26:01,434 : INFO :   )
2018-08-05 22:26:01,434 : INFO :   (output_module): SentimentModule(
2018-08-05 22:26:01,434 : INFO :     (l1): Linear(in_features=150, out_features=3, bias=True)
2018-08-05 22:26:01,434 : INFO :     (logsoftmax): LogSoftmax()
2018-08-05 22:26:01,434 : INFO :   )
2018-08-05 22:26:01,434 : INFO : )
2018-08-05 22:26:01,482 : INFO : _param count_
2018-08-05 22:26:01,482 : INFO : torch.Size([150, 300])
2018-08-05 22:26:01,482 : INFO : torch.Size([150])
2018-08-05 22:26:01,482 : INFO : torch.Size([150, 300])
2018-08-05 22:26:01,482 : INFO : torch.Size([150])
…
2018-11-17 01:42:49,795 : INFO : _________________________________start___________________________________
2018-11-17 01:42:49,806 : INFO : Namespace(batchsize=25, cuda=True, data='data/sst/', emblr=0.1, epochs=10, fine_grain=1, glove='data/glove/', input_dim=300, lower=True, lr=0.05, mem_dim=168, model_name='dependency', name='default_name', num_classes=5, optim='adagrad', reg=0.0001, saved='saved_model', seed=123, wd=0.0001)
2018-11-17 01:42:49,819 : INFO : ==> SST vocabulary size : 21701
2018-11-17 01:42:53,236 : INFO : TreeLSTMSentiment(
2018-11-17 01:42:53,237 : INFO :   (tree_module): ChildSumTreeLSTM(
2018-11-17 01:42:53,237 : INFO :     (ix): Linear(in_features=300, out_features=168, bias=True)
2018-11-17 01:42:53,238 : INFO :     (ih): Linear(in_features=168, out_features=168, bias=True)
2018-11-17 01:42:53,238 : INFO :     (fh): Linear(in_features=168, out_features=168, bias=True)
2018-11-17 01:42:53,238 : INFO :     (fx): Linear(in_features=300, out_features=168, bias=True)
2018-11-17 01:42:53,239 : INFO :     (ux): Linear(in_features=300, out_features=168, bias=True)
2018-11-17 01:42:53,239 : INFO :     (uh): Linear(in_features=168, out_features=168, bias=True)
2018-11-17 01:42:53,240 : INFO :     (ox): Linear(in_features=300, out_features=168, bias=True)
2018-11-17 01:42:53,240 : INFO :     (oh): Linear(in_features=168, out_features=168, bias=True)
2018-11-17 01:42:53,240 : INFO :     (criterion): NLLLoss()
2018-11-17 01:42:53,241 : INFO :     (output_module): SentimentModule(
2018-11-17 01:42:53,241 : INFO :       (l1): Linear(in_features=168, out_features=5, bias=True)
2018-11-17 01:42:53,241 : INFO :       (logsoftmax): LogSoftmax()
2018-11-17 01:42:53,242 : INFO :     )
2018-11-17 01:42:53,242 : INFO :   )
2018-11-17 01:42:53,243 : INFO :   (output_module): SentimentModule(
2018-11-17 01:42:53,243 : INFO :     (l1): Linear(in_features=168, out_features=5, bias=True)
2018-11-17 01:42:53,243 : INFO :     (logsoftmax): LogSoftmax()
2018-11-17 01:42:53,244 : INFO :   )
2018-11-17 01:42:53,244 : INFO : )
2018-11-17 01:42:53,311 : INFO : _param count_
2018-11-17 01:42:53,312 : INFO : torch.Size([168, 300])
2018-11-17 01:42:53,313 : INFO : torch.Size([168])
2018-11-17 01:42:53,314 : INFO : torch.Size([168, 168])
2018-11-17 01:42:53,314 : INFO : torch.Size([168])
…
2018-11-17 02:31:44,603 : INFO :           (0): DecoderLayer(
2018-11-17 02:31:44,603 : INFO :             (dec_self_attn): MultiHeadAttention(
2018-11-17 02:31:44,603 : INFO :               (attention): _MultiHeadAttention(
2018-11-17 02:31:44,603 : INFO :                 (attention): ScaledDotProductAttention(
2018-11-17 02:31:44,603 : INFO :                   (softmax): Softmax()
2018-11-17 02:31:44,603 : INFO :                   (dropout): Dropout(p=0.1)
2018-11-17 02:31:44,603 : INFO :                 )
2018-11-17 02:31:44,603 : INFO :               )
2018-11-17 02:31:44,603 : INFO :               (proj): Linear(
2018-11-17 02:31:44,603 : INFO :                 (linear): Linear(in_features=512, out_features=300, bias=True)
2018-11-17 02:31:44,603 : INFO :               )
2018-11-17 02:31:44,603 : INFO :               (dropout): Dropout(p=0.1)
2018-11-17 02:31:44,603 : INFO :               (layer_norm): LayerNormalization()
2018-11-17 02:31:44,603 : INFO :             )
2018-11-17 02:31:44,603 : INFO :             (dec_enc_attn): MultiHeadAttention(
2018-11-17 02:31:44,603 : INFO :               (attention): _MultiHeadAttention(
2018-11-17 02:31:44,603 : INFO :                 (attention): ScaledDotProductAttention(
2018-11-17 02:31:44,603 : INFO :                   (softmax): Softmax()
2018-11-17 02:31:44,603 : INFO :                   (dropout): Dropout(p=0.1)
2018-11-17 02:31:44,604 : INFO :                 )
2018-11-17 02:31:44,604 : INFO :               )
2018-11-17 02:31:44,604 : INFO :               (proj): Linear(
2018-11-17 02:31:44,604 : INFO :                 (linear): Linear(in_features=512, out_features=300, bias=True)
2018-11-17 02:31:44,604 : INFO :               )
2018-11-17 02:31:44,604 : INFO :               (dropout): Dropout(p=0.1)
2018-11-17 02:31:44,604 : INFO :               (layer_norm): LayerNormalization()
2018-11-17 02:31:44,604 : INFO :             )
2018-11-17 02:31:44,604 : INFO :             (pos_ffn): PoswiseFeedForwardNet(
2018-11-17 02:31:44,604 : INFO :               (relu): ReLU()
2018-11-17 02:31:44,604 : INFO :               (conv1): Conv1d(300, 2048, kernel_size=(1,), stride=(1,))
2018-11-17 02:31:44,604 : INFO :               (conv2): Conv1d(2048, 300, kernel_size=(1,), stride=(1,))
2018-11-17 02:31:44,604 : INFO :               (dropout): Dropout(p=0.1)
2018-11-17 02:31:44,604 : INFO :               (layer_norm): LayerNormalization()
2018-11-17 02:31:44,604 : INFO :             )
2018-11-17 02:31:44,604 : INFO :           )
2018-11-17 02:31:44,604 : INFO :           (1): DecoderLayer(
2018-11-17 02:31:44,604 : INFO :             (dec_self_attn): MultiHeadAttention(
2018-11-17 02:31:44,604 : INFO :               (attention): _MultiHeadAttention(
2018-11-17 02:31:44,604 : INFO :                 (attention): ScaledDotProductAttention(
2018-11-17 02:31:44,604 : INFO :                   (softmax): Softmax()
2018-11-17 02:31:44,604 : INFO :                   (dropout): Dropout(p=0.1)
2018-11-17 02:31:44,604 : INFO :                 )
2018-11-17 02:31:44,604 : INFO :               )
2018-11-17 02:31:44,604 : INFO :               (proj): Linear(
2018-11-17 02:31:44,604 : INFO :                 (linear): Linear(in_features=512, out_features=300, bias=True)
2018-11-17 02:31:44,605 : INFO :               )
2018-11-17 02:31:44,605 : INFO :               (dropout): Dropout(p=0.1)
2018-11-17 02:31:44,605 : INFO :               (layer_norm): LayerNormalization()
2018-11-17 02:31:44,605 : INFO :             )
2018-11-17 02:31:44,605 : INFO :             (dec_enc_attn): MultiHeadAttention(
2018-11-17 02:31:44,605 : INFO :               (attention): _MultiHeadAttention(
2018-11-17 02:31:44,605 : INFO :                 (attention): ScaledDotProductAttention(
2018-11-17 02:31:44,605 : INFO :                   (softmax): Softmax()
2018-11-17 02:31:44,605 : INFO :                   (dropout): Dropout(p=0.1)
2018-11-17 02:31:44,605 : INFO :                 )
2018-11-17 02:31:44,605 : INFO :               )
2018-11-17 02:31:44,605 : INFO :               (proj): Linear(
2018-11-17 02:31:44,605 : INFO :                 (linear): Linear(in_features=512, out_features=300, bias=True)
2018-11-17 02:31:44,605 : INFO :               )
2018-11-17 02:31:44,605 : INFO :               (dropout): Dropout(p=0.1)
2018-11-17 02:31:44,605 : INFO :               (layer_norm): LayerNormalization()
2018-11-17 02:31:44,605 : INFO :             )
2018-11-17 02:31:44,605 : INFO :             (pos_ffn): PoswiseFeedForwardNet(
2018-11-17 02:31:44,605 : INFO :               (relu): ReLU()
2018-11-17 02:31:44,605 : INFO :               (conv1): Conv1d(300, 2048, kernel_size=(1,), stride=(1,))
2018-11-17 02:31:44,605 : INFO :               (conv2): Conv1d(2048, 300, kernel_size=(1,), stride=(1,))
2018-11-17 02:31:44,605 : INFO :               (dropout): Dropout(p=0.1)
2018-11-17 02:31:44,605 : INFO :               (layer_norm): LayerNormalization()
2018-11-17 02:31:44,605 : INFO :             )
2018-11-17 02:31:44,605 : INFO :           )
2018-11-17 02:31:44,605 : INFO :         )
2018-11-17 02:31:44,605 : INFO :       )
2018-11-17 02:31:44,605 : INFO :     )
2018-11-17 02:31:44,605 : INFO :     (ix): Linear(in_features=300, out_features=168, bias=True)
2018-11-17 02:31:44,605 : INFO :     (ih): Linear(in_features=168, out_features=168, bias=True)
2018-11-17 02:31:44,606 : INFO :     (fh): Linear(in_features=168, out_features=168, bias=True)
2018-11-17 02:31:44,606 : INFO :     (fx): Linear(in_features=300, out_features=168, bias=True)
2018-11-17 02:31:44,606 : INFO :     (ux): Linear(in_features=300, out_features=168, bias=True)
2018-11-17 02:31:44,606 : INFO :     (uh): Linear(in_features=168, out_features=168, bias=True)
2018-11-17 02:31:44,606 : INFO :     (ox): Linear(in_features=300, out_features=168, bias=True)
2018-11-17 02:31:44,606 : INFO :     (oh): Linear(in_features=168, out_features=168, bias=True)
2018-11-17 02:31:44,606 : INFO :     (criterion): NLLLoss()
2018-11-17 02:31:44,606 : INFO :     (output_module): SentimentModule(
2018-11-17 02:31:44,606 : INFO :       (l1): Linear(in_features=168, out_features=5, bias=True)
2018-11-17 02:31:44,606 : INFO :       (logsoftmax): LogSoftmax()
2018-11-17 02:31:44,606 : INFO :     )
2018-11-17 02:31:44,606 : INFO :   )
2018-11-17 02:31:44,606 : INFO :   (output_module): SentimentModule(
2018-11-17 02:31:44,606 : INFO :     (l1): Linear(in_features=168, out_features=5, bias=True)
2018-11-17 02:31:44,606 : INFO :     (logsoftmax): LogSoftmax()
2018-11-17 02:31:44,606 : INFO :   )
2018-11-17 02:31:44,606 : INFO : )
2018-11-17 02:31:44,678 : INFO : _param count_
2018-11-17 02:31:44,678 : INFO : torch.Size([8, 300, 64])
2018-11-17 02:31:44,678 : INFO : torch.Size([8, 300, 64])
2018-11-17 02:31:44,678 : INFO : torch.Size([8, 300, 64])
…
2018-11-17 02:32:29,445 : INFO :           (1): DecoderLayer(
2018-11-17 02:32:29,445 : INFO :             (dec_self_attn): MultiHeadAttention(
2018-11-17 02:32:29,445 : INFO :               (attention): _MultiHeadAttention(
2018-11-17 02:32:29,445 : INFO :                 (attention): ScaledDotProductAttention(
2018-11-17 02:32:29,445 : INFO :                   (softmax): Softmax()
2018-11-17 02:32:29,445 : INFO :                   (dropout): Dropout(p=0.1)
2018-11-17 02:32:29,445 : INFO :                 )
2018-11-17 02:32:29,445 : INFO :               )
2018-11-17 02:32:29,445 : INFO :               (proj): Linear(
2018-11-17 02:32:29,445 : INFO :                 (linear): Linear(in_features=512, out_features=300, bias=True)
2018-11-17 02:32:29,445 : INFO :               )
2018-11-17 02:32:29,445 : INFO :               (dropout): Dropout(p=0.1)
2018-11-17 02:32:29,445 : INFO :               (layer_norm): LayerNormalization()
2018-11-17 02:32:29,445 : INFO :             )
2018-11-17 02:32:29,445 : INFO :             (dec_enc_attn): MultiHeadAttention(
2018-11-17 02:32:29,445 : INFO :               (attention): _MultiHeadAttention(
2018-11-17 02:32:29,445 : INFO :                 (attention): ScaledDotProductAttention(
2018-11-17 02:32:29,445 : INFO :                   (softmax): Softmax()
2018-11-17 02:32:29,445 : INFO :                   (dropout): Dropout(p=0.1)
2018-11-17 02:32:29,445 : INFO :                 )
2018-11-17 02:32:29,445 : INFO :               )
2018-11-17 02:32:29,446 : INFO :               (proj): Linear(
2018-11-17 02:32:29,446 : INFO :                 (linear): Linear(in_features=512, out_features=300, bias=True)
2018-11-17 02:32:29,446 : INFO :               )
2018-11-17 02:32:29,446 : INFO :               (dropout): Dropout(p=0.1)
2018-11-17 02:32:29,446 : INFO :               (layer_norm): LayerNormalization()
2018-11-17 02:32:29,446 : INFO :             )
2018-11-17 02:32:29,446 : INFO :             (pos_ffn): PoswiseFeedForwardNet(
2018-11-17 02:32:29,446 : INFO :               (relu): ReLU()
2018-11-17 02:32:29,446 : INFO :               (conv1): Conv1d(300, 2048, kernel_size=(1,), stride=(1,))
2018-11-17 02:32:29,446 : INFO :               (conv2): Conv1d(2048, 300, kernel_size=(1,), stride=(1,))
2018-11-17 02:32:29,446 : INFO :               (dropout): Dropout(p=0.1)
2018-11-17 02:32:29,446 : INFO :               (layer_norm): LayerNormalization()
2018-11-17 02:32:29,446 : INFO :             )
2018-11-17 02:32:29,446 : INFO :           )
2018-11-17 02:32:29,446 : INFO :         )
2018-11-17 02:32:29,446 : INFO :       )
2018-11-17 02:32:29,446 : INFO :     )
2018-11-17 02:32:29,446 : INFO :     (ix): Linear(in_features=300, out_features=300, bias=True)
2018-11-17 02:32:29,446 : INFO :     (ih): Linear(in_features=300, out_features=300, bias=True)
2018-11-17 02:32:29,446 : INFO :     (fh): Linear(in_features=300, out_features=300, bias=True)
2018-11-17 02:32:29,446 : INFO :     (fx): Linear(in_features=300, out_features=300, bias=True)
2018-11-17 02:32:29,446 : INFO :     (ux): Linear(in_features=300, out_features=300, bias=True)
2018-11-17 02:32:29,446 : INFO :     (uh): Linear(in_features=300, out_features=300, bias=True)
2018-11-17 02:32:29,446 : INFO :     (ox): Linear(in_features=300, out_features=300, bias=True)
2018-11-17 02:32:29,446 : INFO :     (oh): Linear(in_features=300, out_features=300, bias=True)
2018-11-17 02:32:29,446 : INFO :     (criterion): NLLLoss()
2018-11-17 02:32:29,446 : INFO :     (output_module): SentimentModule(
2018-11-17 02:32:29,447 : INFO :       (l1): Linear(in_features=300, out_features=5, bias=True)
2018-11-17 02:32:29,447 : INFO :       (logsoftmax): LogSoftmax()
2018-11-17 02:32:29,447 : INFO :     )
2018-11-17 02:32:29,447 : INFO :   )
2018-11-17 02:32:29,447 : INFO :   (output_module): SentimentModule(
2018-11-17 02:32:29,447 : INFO :     (l1): Linear(in_features=300, out_features=5, bias=True)
2018-11-17 02:32:29,447 : INFO :     (logsoftmax): LogSoftmax()
2018-11-17 02:32:29,447 : INFO :   )
2018-11-17 02:32:29,447 : INFO : )
2018-11-17 02:32:29,507 : INFO : _param count_
2018-11-17 02:32:29,507 : INFO : torch.Size([8, 300, 64])
2018-11-17 02:32:29,507 : INFO : torch.Size([8, 300, 64])
2018-11-17 02:32:29,507 : INFO : torch.Size([8, 300, 64])
…
2018-11-17 03:17:58,945 : INFO : _________________________________start___________________________________
2018-11-17 03:17:58,949 : INFO : Namespace(batchsize=25, cuda=True, data='data/sst/', emblr=0.1, epochs=10, fine_grain=1, glove='data/glove/', input_dim=300, lower=True, lr=0.05, mem_dim=300, model_name='dependency', name='default_name', num_classes=5, optim='adagrad', reg=0.0001, saved='saved_model', seed=123, wd=0.0001)
2018-11-17 03:17:58,961 : INFO : ==> SST vocabulary size : 21701
2018-11-17 03:18:00,911 : INFO : TreeLSTMSentiment(
2018-11-17 03:18:00,911 : INFO :   (tree_module): ChildSumTreeLSTM(
2018-11-17 03:18:00,911 : INFO :     (ix): Linear(in_features=300, out_features=300, bias=True)
2018-11-17 03:18:00,911 : INFO :     (ih): Linear(in_features=300, out_features=300, bias=True)
2018-11-17 03:18:00,911 : INFO :     (fh): Linear(in_features=300, out_features=300, bias=True)
2018-11-17 03:18:00,911 : INFO :     (fx): Linear(in_features=300, out_features=300, bias=True)
2018-11-17 03:18:00,911 : INFO :     (ux): Linear(in_features=300, out_features=300, bias=True)
2018-11-17 03:18:00,911 : INFO :     (uh): Linear(in_features=300, out_features=300, bias=True)
2018-11-17 03:18:00,911 : INFO :     (ox): Linear(in_features=300, out_features=300, bias=True)
2018-11-17 03:18:00,912 : INFO :     (oh): Linear(in_features=300, out_features=300, bias=True)
2018-11-17 03:18:00,912 : INFO :     (criterion): NLLLoss()
2018-11-17 03:18:00,912 : INFO :     (output_module): SentimentModule(
2018-11-17 03:18:00,912 : INFO :       (l1): Linear(in_features=300, out_features=5, bias=True)
2018-11-17 03:18:00,912 : INFO :       (logsoftmax): LogSoftmax()
2018-11-17 03:18:00,912 : INFO :     )
2018-11-17 03:18:00,912 : INFO :   )
2018-11-17 03:18:00,912 : INFO :   (output_module): SentimentModule(
2018-11-17 03:18:00,912 : INFO :     (l1): Linear(in_features=300, out_features=5, bias=True)
2018-11-17 03:18:00,912 : INFO :     (logsoftmax): LogSoftmax()
2018-11-17 03:18:00,912 : INFO :   )
2018-11-17 03:18:00,912 : INFO : )
2018-11-17 03:18:00,959 : INFO : _param count_
2018-11-17 03:18:00,960 : INFO : torch.Size([300, 300])
2018-11-17 03:18:00,960 : INFO : torch.Size([300])
2018-11-17 03:18:00,960 : INFO : torch.Size([300, 300])
2018-11-17 03:18:00,960 : INFO : torch.Size([300])
…
2018-11-17 17:22:44,481 : INFO :           (1): DecoderLayer(
2018-11-17 17:22:44,481 : INFO :             (child_self_attn): MultiHeadAttention(
2018-11-17 17:22:44,481 : INFO :               (attention): _MultiHeadAttention(
2018-11-17 17:22:44,481 : INFO :                 (attention): ScaledDotProductAttention(
2018-11-17 17:22:44,481 : INFO :                   (softmax): Softmax()
2018-11-17 17:22:44,481 : INFO :                   (dropout): Dropout(p=0.1)
2018-11-17 17:22:44,481 : INFO :                 )
2018-11-17 17:22:44,481 : INFO :               )
2018-11-17 17:22:44,481 : INFO :               (proj): Linear(
2018-11-17 17:22:44,481 : INFO :                 (linear): Linear(in_features=512, out_features=300, bias=True)
2018-11-17 17:22:44,481 : INFO :               )
2018-11-17 17:22:44,481 : INFO :               (dropout): Dropout(p=0.1)
2018-11-17 17:22:44,481 : INFO :               (layer_norm): LayerNormalization()
2018-11-17 17:22:44,481 : INFO :             )
2018-11-17 17:22:44,481 : INFO :             (parent_child_attn): MultiHeadAttention(
2018-11-17 17:22:44,481 : INFO :               (attention): _MultiHeadAttention(
2018-11-17 17:22:44,481 : INFO :                 (attention): ScaledDotProductAttention(
2018-11-17 17:22:44,481 : INFO :                   (softmax): Softmax()
2018-11-17 17:22:44,481 : INFO :                   (dropout): Dropout(p=0.1)
2018-11-17 17:22:44,481 : INFO :                 )
2018-11-17 17:22:44,481 : INFO :               )
2018-11-17 17:22:44,481 : INFO :               (proj): Linear(
2018-11-17 17:22:44,481 : INFO :                 (linear): Linear(in_features=512, out_features=300, bias=True)
2018-11-17 17:22:44,481 : INFO :               )
2018-11-17 17:22:44,481 : INFO :               (dropout): Dropout(p=0.1)
2018-11-17 17:22:44,481 : INFO :               (layer_norm): LayerNormalization()
2018-11-17 17:22:44,481 : INFO :             )
2018-11-17 17:22:44,481 : INFO :             (pos_ffn): PoswiseFeedForwardNet(
2018-11-17 17:22:44,481 : INFO :               (relu): ReLU()
2018-11-17 17:22:44,481 : INFO :               (conv1): Conv1d(300, 2048, kernel_size=(1,), stride=(1,))
2018-11-17 17:22:44,481 : INFO :               (conv2): Conv1d(2048, 300, kernel_size=(1,), stride=(1,))
2018-11-17 17:22:44,481 : INFO :               (dropout): Dropout(p=0.1)
2018-11-17 17:22:44,481 : INFO :               (layer_norm): LayerNormalization()
2018-11-17 17:22:44,481 : INFO :             )
2018-11-17 17:22:44,481 : INFO :           )
2018-11-17 17:22:44,482 : INFO :         )
2018-11-17 17:22:44,482 : INFO :       )
2018-11-17 17:22:44,482 : INFO :     )
2018-11-17 17:22:44,482 : INFO :     (ix): Linear(in_features=300, out_features=300, bias=True)
2018-11-17 17:22:44,482 : INFO :     (ih): Linear(in_features=300, out_features=300, bias=True)
2018-11-17 17:22:44,482 : INFO :     (fh): Linear(in_features=300, out_features=300, bias=True)
2018-11-17 17:22:44,482 : INFO :     (fx): Linear(in_features=300, out_features=300, bias=True)
2018-11-17 17:22:44,482 : INFO :     (ux): Linear(in_features=300, out_features=300, bias=True)
2018-11-17 17:22:44,482 : INFO :     (uh): Linear(in_features=300, out_features=300, bias=True)
2018-11-17 17:22:44,482 : INFO :     (ox): Linear(in_features=300, out_features=300, bias=True)
2018-11-17 17:22:44,482 : INFO :     (oh): Linear(in_features=300, out_features=300, bias=True)
2018-11-17 17:22:44,482 : INFO :     (criterion): NLLLoss()
2018-11-17 17:22:44,482 : INFO :     (transrfom): Linear(in_features=300, out_features=300, bias=True)
2018-11-17 17:22:44,482 : INFO :     (output_module): SentimentModule(
2018-11-17 17:22:44,482 : INFO :       (l1): Linear(in_features=300, out_features=5, bias=True)
2018-11-17 17:22:44,482 : INFO :       (logsoftmax): LogSoftmax()
2018-11-17 17:22:44,482 : INFO :     )
2018-11-17 17:22:44,482 : INFO :   )
2018-11-17 17:22:44,482 : INFO :   (output_module): SentimentModule(
2018-11-17 17:22:44,482 : INFO :     (l1): Linear(in_features=300, out_features=5, bias=True)
2018-11-17 17:22:44,482 : INFO :     (logsoftmax): LogSoftmax()
2018-11-17 17:22:44,482 : INFO :   )
2018-11-17 17:22:44,482 : INFO : )
2018-11-17 17:22:44,547 : INFO : _param count_
2018-11-17 17:22:44,547 : INFO : torch.Size([8, 300, 64])
2018-11-17 17:22:44,547 : INFO : torch.Size([8, 300, 64])
2018-11-17 17:22:44,547 : INFO : torch.Size([8, 300, 64])
…
